LenguajeSenas-Sanchez-Quinteros/models/model_no_quant.tflite (tflite, 18604 bytes, 8 tensors)

sequential/dense/BiasAdd/ReadVariableOp f4 [60]
000000 19 90 ef bb a1 d2 39 bd 75 59 46 bc 6c f9 09 3d
       -0.007310879 -0.045366887 -0.012106289 0.033685133
000010 00 00 00 00 f1 6c 98 bc d5 66 a8 bc 41 5a e7 bc
       0.0 -0.018606635 -0.020556847 -0.028241279
000020 42 41 b7 bc d5 3f 6f bd fe 6b 3c 3d 2a 20 61 bc
       -0.022369985 -0.058410484 0.046001427 -0.013740579
000030 00 00 00 00 80 08 e6 bc 85 b4 8c 3c 2a ea 80 bb
       0.0 -0.028080225 0.017175922 -0.0039341645
000040 06 82 35 bd a4 26 4b bd 38 93 53 3a 00 00 00 00
       -0.044313453 -0.049597397 0.00080709485 0.0
000050 88 81 84 3d 95 43 d8 bc 28 76 71 bd 00 00 00 00
       0.064700186 -0.026399413 -0.058950573 0.0
000060 3e 99 f4 bb c4 96 40 bd 6a 70 17 3d 00 00 00 00
       -0.007464557 -0.04701878 0.03697244 0.0
000070 f1 a3 40 3c 4a 52 7c 3c a7 28 3e 3c 8d e0 c4 3b
       0.011757837 0.015400479 0.011606372 0.006008214
000080 59 d3 ae bb 3f 1b 90 bc 14 12 93 bc 00 00 00 00
       -0.005335253 -0.017591117 -0.017952956 0.0
000090 4a 2c a1 bd 00 00 00 00 da b6 0f 3d 00 00 00 00
       -0.078697756 0.0 0.03508649 0.0
0000a0 ae dc 67 3c d3 f1 2b bc 02 48 3b 3d f3 e4 74 bd
       0.014151735 -0.010494667 0.04572297 -0.059788655
0000b0 36 2b 3e 3c 00 00 00 00 3d c0 7e bb 00 00 00 00
       0.011606982 0.0 -0.0038871907 0.0
0000c0 d3 2c 52 3b 71 55 26 3c 82 95 34 bd 34 8f b0 3c
       0.0032070174 0.010152207 -0.044087894 0.02155266
0000d0 28 89 8e 3c 00 00 00 00 2d 79 bb 3c 2a c0 4a 3d
       0.017399386 0.0 0.02288493 0.04949967
0000e0 00 00 00 00 00 00 00 00 a8 3c ea bb 92 64 6b bd
       0.0 0.0 -0.007148344 -0.05746896

sequential/dense_3/BiasAdd/ReadVariableOp f4 [4]
000000 cf 99 68 be f1 53 01 be 14 ca 15 3d a3 86 80 3e
       -0.22714923 -0.12629677 0.03656967 0.2510272

sequential/dense_2/BiasAdd/ReadVariableOp f4 [10]
000000 1e 80 1c bb a4 91 b7 3d 95 a1 76 3d b1 1a 0b bc
       -0.0023880075 0.089633256 0.06021269 -0.00849025
000010 0e 8b f4 3d 85 ae af 3d 93 02 57 3e 66 0a 80 bc
       0.11940585 0.08578209 0.20997076 -0.015629958
000020 b8 7d cc bd 6a ee e4 bc
       -0.099849164 -0.027945716

sequential/dense_1/BiasAdd/ReadVariableOp f4 [30]
000000 f3 28 c2 3d 1d 99 3b 3b 4d 04 30 3d d4 62 1f 3d
       0.09480467 0.0028625198 0.04297285 0.03891261
000010 d3 6c c4 3d 5f 60 34 3d b0 58 45 3d 38 0f e9 3d
       0.09591069 0.04403722 0.048180282 0.11379856
000020 78 df fb bc 09 43 df 3c a4 c0 57 3d 80 13 90 36
       -0.030746207 0.027253645 0.05267395 4.2938045e-06
000030 12 2e d0 3d 9d ad c1 bc 3e a9 bc 3d d7 58 11 bd
       0.10165037 -0.023642356 0.09211968 -0.035485115
000040 fe 50 c8 3d d6 16 47 3d a7 58 15 3e 53 e4 12 3e
       0.09781073 0.048605762 0.145846 0.14344911
000050 71 45 0d 3d 45 df 97 3d 1f a2 0b 3e 80 f5 d6 3d
       0.034490053 0.07415632 0.13636063 0.10496044
000060 99 8a 14 bd 7a d0 64 3d bd 11 b9 bc 4e ea f1 3d
       -0.03626499 0.05586288 -0.022591466 0.11812268
000070 f0 24 32 bc 35 2b fd 3c
       -0.010873064 0.030904392

sequential/dense/MatMul f4 [60, 30]
000000 9a 20 02 bd 86 4b 99 be d7 86 1b 3d 15 73 3c 3e
       -0.031769373 -0.29940432 0.03797039 0.18403275
000010 a5 5d 71 3e d6 b6 79 3e fd 23 b2 bd bc c7 89 3d
       0.23570879 0.24386153 -0.086982705 0.067275494
000020 1e 16 a7 be e7 50 d6 be 26 3f 40 3e bf 68 88 3e
       -0.32634062 -0.418586 0.18774089 0.26642415
000030 f4 ee ae 3d 80 6b 90 3e 88 ab 96 3d 64 ae 89 be
       0.085416704 0.28207016 0.07356936 -0.26890862
000040 91 ba 39 be 7c e4 f3 3d 02 5b af bd 5a 27 90 be
       -0.18137576 0.11908814 -0.0856228 -0.28155023
000050 8c b4 ae 3e 28 c3 bc 3c ea 35 06 3e 8e 09 9a be
       0.3412212 0.023042277 0.13106504 -0.30085415
000060 7a 00 b5 3c 2d 36 2e 3e 2c 75 2a 3e 77 a5 03 be
       0.022094954 0.17012854 0.1664626 -0.12856089
000070 27 e0 38 bb 73 b0 26 be b1 d7 5b be 08 2d 40 be
       -0.0028209777 -0.16278248 -0.21468998 -0.18767178
000080 ce dd f1 3d 92 e1 06 be 8a 41 99 be 05 82 95 bc
       0.11809884 -0.13171986 -0.29932815 -0.018250475
000090 1e 70 3c 3e e9 89 2f 3d d8 7c 86 3c 5d c4 3f be
       0.18402144 0.04285613 0.016416952 -0.1872725
0000a0 8e 34 61 be f4 0f 99 3e 33 05 28 be 7e 21 12 bd
       -0.21992704 0.29894984 -0.16408233 -0.035676472
0000b0 19 1b 47 3e d5 d8 44 bc 59 aa 1a 3e 9a aa 12 3e
       0.1944393 -0.012014587 0.15104045 0.14322892
0000c0 f3 86 f4 3d f6 3f 79 3e 99 4c d5 3c 18 47 2b 3e
       0.11939802 0.24340805 0.026037501 0.16726339
0000d0 13 15 dd bd 6d 35 43 be 98 7d 22 be 00 e4 05 be
       -0.10795035 -0.19063349 -0.15868223 -0.13075256
0000e0 81 8a 0b 3e 61 bf a8 3d 70 c2 86 3e 1c 29 f2 3e
       0.13627054 0.08239628 0.2632022 0.4729699
0000f0 6e 29 96 3d 6c df 65 3c e5 6f eb 3d 49 10 4c be
       0.07332121 0.014030319 0.114959516 -0.19928087
000100 c2 1d 93 3e dd 30 0b be cd ab 98 3e 1e be a0 be
       0.2873364 -0.13592859 0.29818574 -0.31395048
000110 cf 24 24 3e a0 72 c0 3e 92 b7 d8 3c d3 4f 7a bc
       0.16029666 0.37587452 0.02645472 -0.015277821
000120 6c ce 60 be e8 7b cd bd 37 11 ab bd 89 6c 41 3e
       -0.21953744 -0.10033399 -0.08352893 0.18889059
000130 37 33 9b 3e ce df ea bd 79 cf 83 be 51 a3 d3 3c
       0.3031251 -0.114684686 -0.25744227 0.025834711
000140 08 0d af be 6e 30 72 be 15 35 14 be 4e 71 23 3e
       -0.3418963 -0.23651287 -0.14473374 0.15961191
000150 60 81 de bd 79 06 0c 3e 5b 72 e9 3b e0 61 a6 3e
       -0.1086452 0.13674344 0.007124228 0.32496548
000160 eb 17 93 3d 97 64 c5 3d c9 31 a6 bc 89 f6 7f 3d
       0.07182296 0.096383266 -0.020287411 0.062490974
000170 a2 f7 71 bd 60 8a 17 3e be 28 85 3e b1 30 47 3e
       -0.05907405 0.1479888 0.26007646 0.19452168
000180 c7 bb a4 be 01 5c af 3b e0 25 7f be 41 60 a7 bd
       -0.32174513 0.005351544 -0.24916792 -0.08172656
000190 be 31 19 3e 1e 23 9e bc 64 df 2e bc b7 26 08 bd
       0.14960381 -0.019303855 -0.010673378 -0.033240046
0001a0 65 9c 8b bd b5 38 2e 3e 1e 22 07 3d 29 93 46 3e
       -0.06816939 0.1701382 0.03299152 0.19392075
0001b0 59 17 d7 3d dd 37 0b be c5 3d 08 3e 8b 72 17 be
       0.105025 -0.13595529 0.13304813 -0.14789788
0001c0 27 f1 09 bb 4d 0b 4e 3e b9 1a 9a bd d9 f1 77 3e
       -0.002104828 0.20121498 -0.07524628 0.24213351
0001d0 9a 4b 01 be f2 7d 68 be d6 6c ca 3c 7f f7 3d be
       -0.12626496 -0.22704294 0.0247101 -0.18551444
0001e0 90 09 a2 3c 16 29 9a bd 98 3a 12 3d 2d 11 68 be
       0.01977995 -0.07527368 0.03570041 -0.22662802
0001f0 76 a7 54 3e d2 cb 68 be ce 66 b4 bd 89 e7 3f be
       0.20767006 -0.22734001 -0.08808671 -0.18740667
000200 56 4e 7a 3e a0 5d 62 3c 8a c8 b4 bd 8c ce 80 be
       0.24443945 0.013816267 -0.08827312 -0.25157583
000210 6e 0b 73 be 3a ee 32 3e fb a4 59 be 70 68 02 be
       -0.23734829 0.17473689 -0.21254341 -0.12735152
000220 24 a4 65 bd e6 77 38 3e 08 c2 d6 bc 3a e8 a3 bd
       -0.05606474 0.18014488 -0.026215568 -0.08003278
000230 20 d1 47 3d 04 6a 59 3e b4 0e 41 be 1e b7 49 be
       0.04878342 0.21231848 -0.18853265 -0.1969876
000240 46 e4 79 3e 78 22 25 be 94 50 ec bd 42 7f 4b be
       0.24403486 -0.1612643 -0.115388066 -0.19872764
000250 62 64 70 be e4 2e 6d be fb ae 47 3e 85 a1 06 be
       -0.23475793 -0.23162419 0.19500344 -0.13147552
000260 4d 11 5a 3b b2 0a 81 be 21 e7 c6 bd df 24 c4 3d
       0.0033274472 -0.25203472 -0.09712053 0.09577345
000270 2e 22 67 3d 8f e0 45 3e df d0 a9 3b f6 f0 78 be
       0.05642908 0.19323944 0.00518237 -0.2431067
000280 72 c7 70 3c 87 3a 28 be 24 01 b2 3d b9 e6 27 3c
       0.014695989 -0.16428576 0.08691624 0.01024788
000290 5a 41 89 3c 7a 84 bc 3d 26 ca 22 3e da f8 b4 3d
       0.016754795 0.092049554 0.15897426 0.08836527
0002a0 f8 a1 37 be be 29 39 be a0 1f c8 3d d6 69 45 3e
       -0.1793288 -0.1808233 0.09771657 0.19278654
0002b0 9f 59 52 3d 06 6a 0e be f7 16 b5 3d ea 30 76 be
       0.051355 -0.13907632 0.08842271 -0.24042097
0002c0 00 eb 3e be be ad 81 be bf 9f a3 bc 56 db 10 3e
       -0.18644333 -0.25327867 -0.019973634 0.1414617
0002d0 dd fe b9 3e 9a 65 ad 3e a0 e4 f8 3b 88 f6 dc bd
       0.36327258 0.33866578 0.0075956136 -0.107892096
0002e0 22 88 ac 3e 54 81 6e 3e f1 05 9c 3e 5f 5c 87 bd
       0.3369761 0.23291522 0.30473283 -0.06609415
0002f0 bd c4 42 be f6 c4 d3 3d ed 28 98 be a4 e5 62 be
       -0.19020362 0.10340302 -0.29718724 -0.22157913
000300 d3 42 92 be ec 53 99 be cb eb 27 bd c0 2b 50 3e
       -0.28566608 -0.2994684 -0.040996354 0.2032919
000310 2d b9 13 3e 11 11 63 3e ea 07 8c bc e8 59 66 3e
       0.14426108 0.22174479 -0.017093617 0.22495234
000320 d3 62 27 be a3 e5 72 be 70 45 22 3d 7d 42 0a be
       -0.16346292 -0.23720412 0.039617002 -0.13501926
000330 a2 7a 85 be c1 f1 ac 3d 9f 4a cf bd a4 dc 6e 3e
       -0.26070124 0.084445484 -0.10121655 0.23326355
000340 61 82 84 3e 20 2a 85 be b6 c6 32 bc 75 78 eb 3d
       0.2588072 -0.260087 -0.010911634 0.11497585
000350 91 91 85 3d d4 46 8d bd b2 0a 3f be eb 5d f3 3d
       0.06521905 -0.06898275 -0.18656424 0.11883148
000360 df 4b 79 3e 1b 47 6e 3d ac 5a c3 3c 34 ec c7 bc
       0.24345349 0.05817328 0.023846947 -0.024404623
000370 81 97 bc be e3 05 92 be 2d e0 8f be f8 3d dd 3d
       -0.36834338 -0.28520116 -0.2810072 0.10802835
000380 55 09 03 bd 42 8d e2 3d d9 39 98 3d 8c 04 82 3e
       -0.03199132 0.11062099 0.074329086 0.25394094
000390 6e 30 49 be c4 06 b0 3e 63 59 42 be 12 53 92 be
       -0.1964738 0.34380162 -0.18979411 -0.28579003
0003a0 77 ca 53 3e cc 1a 8d 3e cd 43 03 be 81 63 46 3d
       0.20682703 0.27559507 -0.12818833 0.048434738
0003b0 93 60 89 bd d6 42 39 be b8 4d a3 3e 29 2f 8b 3e
       -0.06707873 -0.18091902 0.31895232 0.27184418
0003c0 f0 c7 13 bd 60 5d 4e be 3f 49 a4 be a6 0e 94 3e
       -0.036079347 -0.20152807 -0.32087132 0.28917426
0003d0 2c d0 0e be 3d 1e 28 3e 94 16 29 bb 18 61 bd 3c
       -0.13946599 0.16417785 -0.002580081 0.023117587
0003e0 23 08 86 3e 8d b4 9e 3b d1 96 59 bd ea 72 b4 3e
       0.26178083 0.0048433007 -0.053122345 0.35243922
0003f0 ec 95 11 3d d0 22 29 3d 27 08 08 3e 5f c8 4d 3e
       0.035543367 0.041292965 0.1328436 0.20095967

sequential/dense_1/MatMul f4 [30, 60]
000000 fb dd 37 3e 3f 3c b9 bd 9b 3f 84 be db a2 9e 3d
       0.17955773 -0.09044694 -0.25829777 0.07745906
000010 68 22 ba 3d 0e e3 44 bd 02 14 0d bf 68 aa a0 be
       0.09088594 -0.0480681 -0.55108654 -0.3138001
000020 ce dd ff bc 7b 07 58 3d c7 22 76 3e f3 c3 7e be
       -0.031233694 0.05274151 0.24036704 -0.24879436
000030 10 b3 1b 3d e2 79 ff 3d 79 39 b5 3e 5c d3 38 3e
       0.038012564 0.12474419 0.3539541 0.18049377
000040 5f c1 61 3e ee 63 0e 3e 3e 96 09 3f a0 0a 93 3d
       0.22046421 0.13905308 0.53744876 0.07179761
000050 5a 2a 54 3e f5 83 cf 3e 6f 87 62 3e 40 6b ab 3d
       0.20719281 0.40530363 0.22121976 0.08370066
000060 64 0a 89 3d 00 eb 8b 3d 1f 29 93 be 58 a0 31 be
       0.06691435 0.06831932 -0.2874231 -0.17346323
000070 34 ab e4 3e a0 c3 2a 3e d0 23 82 be 45 c2 72 be
       0.44661868 0.16676188 -0.25417948 -0.2370692
000080 f7 5e 06 be ab eb 01 3e 79 4c e5 3d 04 f7 07 be
       -0.13122164 0.12687556 0.111962266 -0.13277823
000090 73 7f 86 bd 68 1b 73 be ff 8c e1 3e ba 6c 2b 3e
       -0.06567278 -0.23740923 0.44052884 0.16740695
0000a0 d2 82 c4 3d bb fb 20 3e 16 d4 72 be 9c 86 97 3d
       0.095952645 0.15721028 -0.23713717 0.073987216
0000b0 f9 3e 1b 3e 10 e6 2e 3d fd 1f 70 be 00 74 e0 3b
       0.15160741 0.042699873 -0.23449703 0.006849766
0000c0 b7 5c c3 bd 5c 9e 72 bd c9 11 8f 3e ba 7b db be
       -0.09539168 -0.059233055 0.27943256 -0.42867833
0000d0 45 81 f9 be 40 b9 82 bb 0d 14 e6 3e d4 4d 06 3d
       -0.48731437 -0.0039893687 0.44937173 0.032789066
0000e0 10 a9 6e bc 8f 7b 5a be 4f d9 87 bd 44 c8 68 3e
       -0.014566675 -0.21336196 -0.06633245 0.22732645
0000f0 11 e3 07 3e e5 74 9b 3e ff 52 1a be 43 d4 53 be
       0.13270213 0.3036262 -0.15070723 -0.2068644
000100 5c 60 1a be f9 38 f3 bd 77 57 b1 3d bd b0 73 be
       -0.1507582 -0.11876101 0.08659261 -0.23797889
000110 85 85 fd bc 69 88 ac bd 34 4e cb bd 69 4f 04 bd
       -0.030947456 -0.08424456 -0.099270254 -0.032302294
000120 80 2e 93 3b 3e 96 fe bc a2 de 82 be c5 20 75 3c
       0.004491627 -0.0310775 -0.2556048 0.014961426
000130 a0 b2 60 3e 17 cd 31 3e c8 eb 10 be 04 27 d8 3d
       0.2194314 0.17363392 -0.14152443 0.10554317
000140 47 b8 1f be 00 9e 2e 3e 30 43 82 3e 3e f3 08 3e
       -0.1559764 0.1705246 0.25441885 0.1337404
000150 66 ea a8 3d 7c f2 9a 3d 8f 60 a7 3d c4 7f ce bd
       0.08247833 0.075657815 0.08172714 -0.10082963
000160 03 59 8c bd be b1 cb bd 1f 9b b1 3c ae 99 52 3e
       -0.06852915 -0.09946011 0.021680413 0.20566437
000170 17 11 c4 3d e7 1e 85 3e 4c 11 47 3e 66 7a 79 3e
       0.09573572 0.2600014 0.19440192 0.24363098
000180 1b 52 22 be c0 6e c5 3d f9 4f eb 3d d8 38 83 be
       -0.15851633 0.096402645 0.11489863 -0.25629306
000190 44 69 8c bd 82 72 26 be e9 0e 71 bd 09 5f 55 bc
       -0.06856015 -0.16254619 -0.05885211 -0.013023146
0001a0 e8 1a 04 3e 42 6a 05 3e 3a db ba bd f6 0b 73 3e
       0.12900889 0.13028815 -0.091238454 0.23735031
0001b0 80 52 8c be ca 5e 67 be 60 1a 3f 3e 90 ae 40 3e
       -0.27406693 -0.22594753 0.18662405 0.1881659
0001c0 86 0a ad 3d 40 e8 d6 3d 15 8e 01 3e aa e8 33 3e
       0.08449273 0.10493517 0.12651856 0.17569223
0001d0 be 77 0f 3e 92 dd 2d 3e 15 fe 4e bd 3f 8a 97 3e
       0.14010522 0.16979054 -0.05053528 0.2959766
0001e0 8f 33 89 be 68 b0 2d 3e 52 d4 9f 3e d4 2b 97 ba
       -0.2679715 0.16961825 0.31216675 -0.0011533448
0001f0 e2 c0 f8 bd 2c a2 87 bc cf b5 c9 3c 8d 75 d4 3e
       -0.121461645 -0.016556822 0.024622826 0.41495934
000200 7c 58 70 3e bf bf a6 3e 80 ee 39 bd 2b 07 a1 bd
       0.23471254 0.32568166 -0.045393467 -0.07862695
000210 54 78 59 3e 2b 9c bb 3e 37 84 98 be dd e4 26 be
       0.21237308 0.36642584 -0.29788372 -0.16298242
000220 88 23 a1 3e 2a 05 3a 3e 42 4c 28 3e 94 d2 40 3e
       0.3147242 0.18166032 0.1643534 0.18830329
000230 63 c1 a5 be 5b 2a e5 3d 8c f6 d3 3d c0 f3 f0 3b
       -0.32374105 0.11189719 0.103497595 0.007353276
000240 bb 2d 43 be 57 cc 5c 3d d0 ec d9 bc 90 f0 45 3e
       -0.19060414 0.05390581 -0.026602179 0.19330049
000250 3e d4 12 3d 50 e0 9f be 00 24 de 3e b5 2b 8f bd
       0.03584694 -0.31225824 0.4338684 -0.06990758
000260 a0 49 f1 3d eb 3c 70 be aa e1 63 be a0 79 69 3d
       0.11781621 -0.23460738 -0.22254053 0.057000756
000270 7c 50 d9 3d 0e 61 b9 bd af cc 8f be 76 e5 77 3e
       0.10611054 -0.09051715 -0.2808585 0.24208626
000280 63 00 e5 3d 39 7f e4 bc 5a 9f bb bd 7f 60 e4 bc
       0.111817144 -0.027892696 -0.09161253 -0.027878044
000290 d7 11 11 3e 7c a6 85 bd a5 37 36 be b0 44 36 3e
       0.14166962 -0.06525895 -0.17794664 0.1779964
0002a0 91 ba 8e 3e 7a 02 9f 3e ad 59 ab 3e f8 34 cb 3e
       0.27876714 0.31056577 0.33466855 0.3968885
0002b0 c6 e3 cb 3e 6c 48 05 3e 74 37 ac be 9d e7 51 be
       0.39822215 0.13015908 -0.33636057 -0.2049851
0002c0 ce 1b 0b 3e 14 9f ee bd b4 4b 62 bd 30 78 a1 bc
       0.13584825 -0.116514355 -0.055247977 -0.01971063
0002d0 6a 42 83 bd e7 ad a9 3e b9 5a f8 3c a6 3d 18 3d
       -0.06409152 0.3314049 0.030316697 0.037168168
0002e0 4e c2 47 3e c6 0c 8f bd ae b7 a5 3d 09 d7 76 3e
       0.19507715 -0.06984858 0.08091675 0.24105467
0002f0 df 2b 36 3e 87 f6 dc 3e bb e6 59 bd 65 8b a7 be
       0.17790173 0.43156835 -0.053198557 -0.32723537
000300 b1 c3 65 be 87 28 b1 3d c2 77 b4 be 79 eb 04 be
       -0.22437932 0.08650308 -0.35247618 -0.1298045
000310 5b 42 fd 3e 12 09 ba 3e 1b 9e 23 3d a0 15 31 be
       0.49464688 0.36335045 0.039945703 -0.17293406
000320 44 3b 8e bd fb 72 63 3e 41 23 67 3e 4a ff 2f 3e
       -0.06944898 0.2221183 0.22572042 0.17187229
000330 17 e5 54 3e 4f 6c 28 3d dc d9 1c 3e 84 07 a0 bd
       0.20790516 0.041118916 0.15317482 -0.078139335
000340 b7 16 1e 3b 32 89 c3 be 59 f7 17 3f 2f 66 97 bc
       0.0024122426 -0.3819061 0.593618 -0.018481342
000350 18 e2 29 3d 6c 2c 04 3e 7f 7e 4e 3e 2e 4a 7c 3e
       0.041475385 0.1290757 0.20165442 0.24637672
000360 36 aa bd 3e 14 c3 95 bd 20 b8 d5 bd b4 95 3c be
       0.37043923 -0.07312599 -0.1043551 -0.18416482
000370 2d 66 0c bd d8 e1 9e 3d 9e 87 39 3d b2 3b c8 3e
       -0.03427713 0.0775792 0.04529535 0.39108044
000380 a1 9b c0 be 00 8b 67 3c 33 db 76 3e 20 e9 b8 3c
       -0.37618735 0.014132261 0.24107055 0.0225721
000390 12 c6 d2 bd c5 5d 62 3d 50 4b 80 3e 02 73 89 3d
       -0.10291685 0.055265207 0.2505746 0.06711389
0003a0 7f 73 7f be 08 b9 31 bd 5e c7 ef bc ee ee 0b be
       -0.24946402 -0.04338935 -0.02926987 -0.13665363
0003b0 98 45 7a 3d f4 12 d2 bd 65 14 17 3e de 60 70 3e
       0.061101526 -0.10257521 0.14753874 0.23474452
0003c0 94 d5 a4 be 41 46 dd 3d 1b 34 3b 3e 7d 58 f3 3c
       -0.32194197 0.108044155 0.18281595 0.02970528
0003d0 90 f2 d3 3c 82 31 7f 3e 12 88 80 3e 02 76 2c 3f
       0.025872499 0.2492123 0.25103813 0.67367566
0003e0 06 40 90 3e 2c 43 f6 3d f8 ab d2 be 8d f0 91 be
       0.28173846 0.12024531 -0.41146827 -0.28503838
0003f0 6e 3a 82 be 0c a2 7f bb 5f 37 ec 3d fd a4 d1 3c
       -0.25435203 -0.00390065 0.11533999 0.025591368

sequential/dense_2/MatMul f4 [10, 30]
000000 bd 22 4c 3e 60 3f c9 3c 69 33 17 bd 6d aa ad 3d
       0.19935127 0.024566352 -0.036914263 0.08479772
000010 3b 40 c1 bd 58 02 c8 3d a9 1b 6d bd 65 dd f5 3d
       -0.09436079 0.09766072 -0.057887707 0.12005118
000020 e0 55 9b be 94 c4 59 3e 7e f4 5b 3d a3 a0 b4 3e
       -0.30338955 0.21266395 0.053699963 0.35278806
000030 8c cb 92 3e 6f 79 76 3c 07 7d 3c 3f 86 e8 17 3e
       0.2867092 0.0150436 0.73628277 0.14834794
000040 15 0b f0 bd 99 3c 4f 3e 90 c8 55 3a 5f ea f9 be
       -0.11720864 0.2023796 0.00081551913 -0.48811623
000050 f5 97 f2 3d 46 a6 8e bd 0e 10 4f 3e 49 ef d4 be
       0.1184539 -0.06965308 0.20220968 -0.4158881
000060 f7 57 5e bd aa 60 e8 be 3e eb 83 3d f5 db 11 3f
       -0.05428311 -0.4538625 0.06441353 0.5697625
000070 02 7b 17 3e 9c 2c 27 3f 62 3d 99 bc 39 52 a3 3e
       0.14793018 0.65302444 -0.018706027 0.31898668
000080 35 52 06 3f 27 9c 7e 3e 78 df 29 3f 24 20 06 3f
       0.5246919 0.24864255 0.6635661 0.5239279
000090 26 6b ef 3e 93 e2 9c 3e 9c e0 5a be 36 4a b0 be
       0.46761435 0.30641612 -0.21374744 -0.34431618
0000a0 39 71 97 3e 89 34 e8 bd fe 5b f0 3d 10 ba 64 3e
       0.2957857 -0.11338145 0.11736296 0.22336602
0000b0 be 81 92 be 41 70 32 be 71 cf ea 3e 75 99 23 3f
       -0.2861461 -0.17425634 0.4586139 0.6390603
0000c0 65 cd e1 bc 40 14 00 3f 33 fd 0d 3d 54 a7 b9 be
       -0.02756376 0.500309 0.034665298 -0.36260474
0000d0 6b a2 8f bd 27 e4 0b 3f e4 e8 8f be 4f 70 c3 3e
       -0.07013401 0.5464501 -0.2810737 0.38171622
0000e0 b2 1f 6e bb 42 86 8c be 69 03 4d be 44 49 6a be
       -0.003633481 -0.2744618 -0.20020832 -0.22879511
0000f0 d8 ed 31 be 41 90 a1 3d 76 6f 06 3f 91 68 e9 3e
       -0.17375886 0.078888424 0.52513826 0.4558759
000100 ec 69 d8 3e d2 64 79 3e 58 92 09 3e 47 0b ce 3d
       0.42268312 0.24354866 0.13434732 0.10060745
000110 81 ba 9a be 3c e5 21 3d f4 6b b7 be 21 95 9b be
       -0.30220416 0.039525256 -0.3582455 -0.30387214
000120 f7 d5 8a be 14 be 26 3e f7 02 59 3e 61 f9 9c bd
       -0.27116367 0.16283447 0.21192537 -0.07664753
000130 e3 b1 d5 3d 60 4c 14 3f 1d d6 e0 be a2 56 76 be
       0.1043432 0.5792904 -0.43913355 -0.24056485
000140 60 b9 85 be b9 a0 f0 be cd a9 ce be 5b c7 65 3e
       -0.26117992 -0.46997622 -0.40363923 0.2243933
000150 9d 22 31 be 70 f2 8b be 0e ce cb 3e ac 3b a3 be
       -0.1729836 -0.27333403 0.39805645 -0.31881464
000160 30 09 90 bc ac 42 1c 3e 20 9b 47 be e1 37 e1 3d
       -0.017582506 0.15259808 -0.19492769 0.10996986
000170 19 95 56 3c 24 97 81 bc 81 b5 a9 be 4b 67 5c be
       0.013097071 -0.01581914 -0.3314629 -0.21523778
000180 c9 1e ed bd 82 7e 43 3d b0 b1 52 be bb 8d 81 bd
       -0.115781374 0.04772807 -0.20575595 -0.06325861
000190 24 cf e7 bd 63 2e 4e bb 94 dc a0 3e fc 2b b4 3c
       -0.11318806 -0.0031460754 0.31418288 0.02199363
0001a0 8a 32 75 3e 18 96 94 be 62 5a d0 3e d3 b2 da 3b
       0.2394506 -0.29020762 0.40693957 0.0066741495
0001b0 43 f9 3c 3f 1a ce 88 3e b1 65 a2 be 05 84 a5 3e
       0.73817843 0.26719743 -0.3171821 0.32327285
0001c0 0b 61 8b 3e 09 ed 88 3d 63 03 37 3e ef f0 33 3f
       0.27222475 0.06685836 0.17872386 0.7028951
0001d0 f7 5c 98 be fe bd e3 3e 76 db 93 3e 40 52 04 be
       -0.29758427 0.4448089 0.28878373 -0.12922001
0001e0 5c 3b 04 3f 25 81 34 be 30 3c 47 be 06 bd 8b 3d
       0.51653075 -0.1762739 -0.19456553 0.06823163
0001f0 ff d3 e5 bd e0 80 84 be e1 28 6e 3c 45 f2 08 3f
       -0.11222076 -0.25879574 0.0145361135 0.53494674
000200 8f 2c 96 3e 79 73 bf 3e 69 92 02 3f c6 2a bc 3e
       0.2933087 0.37392786 0.51004654 0.36751384
000210 3f 61 5c 3e d4 02 d0 bd 45 b6 06 3f 60 13 67 3e
       0.21521471 -0.101567894 0.5262187 0.22565985
000220 a9 97 ac 3e 40 cd 64 be d6 8d ba 3e a9 c3 93 3e
       0.33709458 -0.22343922 0.36436337 0.28860214
000230 a9 6e 71 3e 02 68 a6 3e 61 3b c5 3e ac 99 90 be
       0.2357737 0.32501227 0.38521865 -0.28242242
000240 8a 63 85 3d a2 50 52 be ce 44 f6 3e 36 34 27 3f
       0.06513126 -0.20538571 0.4809937 0.6531404
000250 4b 11 19 be d3 a1 85 3e a0 90 96 3d 9d 96 21 3d
       -0.14948003 0.26100025 0.07351804 0.039450277
000260 32 5f 0c 3d 2c dc f7 3e 99 88 6c 3e 82 ab 2c 3d
       0.034270473 0.48410165 0.23098983 0.04215575
000270 6a 3f 99 3d 26 c8 a6 be 6f 68 31 be 4f 18 88 be
       0.074827984 -0.32574576 -0.17324995 -0.26581046
000280 96 2e b6 be 90 93 b6 3e 69 8f d2 be 87 e9 ce bb
       -0.35582417 0.35659456 -0.41125038 -0.0063144597
000290 91 0a 03 3e 26 b0 a8 3e 07 e2 cf 3e 90 f6 7a bd
       0.12797 0.3294689 0.40602133 -0.061270297
0002a0 ac 19 b4 be 0a ae 47 3e f7 20 0c bf 7c a8 f2 be
       -0.35175836 0.19499984 -0.547378 -0.47394168
0002b0 46 ca 08 bf 82 44 e0 3e 70 ac 7e 3e 17 0b 88 be
       -0.53433645 0.43802267 0.24870467 -0.2657096
0002c0 b8 d7 78 be 64 01 05 bd c8 bf ec 3d bd 00 f3 3d
       -0.2430104 -0.03247203 0.11560017 0.11865375
0002d0 b7 a2 f9 be c0 ea 2f be 0c 8f ab 3e 1a ba bd 3d
       -0.48756954 -0.17179394 0.33507574 0.09264012
0002e0 e3 2f 46 3d 91 b4 a4 3e ed c9 d7 3e 3d 11 3d 3e
       0.048385512 0.3216901 0.42146245 0.18463607
0002f0 91 5f 07 bd 81 c8 ec be fb 44 01 3f cf 0c 59 bc
       -0.033050124 -0.46246722 0.5049588 -0.013247683
000300 38 fd 72 be 91 6d ae be c9 e0 1e bf 48 5e 5b be
       -0.23729408 -0.34067968 -0.62061745 -0.21422684
000310 53 1e 0b 3f 3f 90 ee bd 75 0a c5 3e 99 ed 18 3f
       0.54343146 -0.116486065 0.3848454 0.59737545
000320 60 44 d8 be 57 30 4f 3d 33 09 0f 3f 23 da 00 3f
       -0.42239666 0.05058321 0.5587341 0.5033285
000330 e5 59 fb bd 5a d7 66 3d 02 e0 e2 be 44 13 9e 3c
       -0.122730054 0.05635772 -0.4431153 0.019296296
000340 16 86 9c 3e 06 7e 04 bf cf f3 ea 3d 87 8e 83 be
       0.3057105 -0.51754797 0.11472284 -0.25694677
000350 be 10 a3 be 0b ae ce be f4 3e 5f be d6 af 13 bf
       -0.3184871 -0.4036716 -0.21801358 -0.5769018
000360 4d 2c 0a bf 3c a6 83 3e aa e0 bb be 0e 6e 90 3e
       -0.5397385 0.25712764 -0.36694843 0.28208965
000370 0f d4 c1 3e be 35 b5 3d 39 ae 31 3f 8e 6e 7c 3e
       0.378571 0.08848141 0.6940647 0.24651548
000380 db 93 4e 3e 33 04 39 be 81 4f be be 7d 38 5c be
       0.2017359 -0.18068008 -0.37170032 -0.21505924
000390 97 ef 17 be 62 91 38 be 06 ff 66 3e dd 00 d4 3e
       -0.1483749 -0.18024209 0.22558221 0.4140691
0003a0 c0 26 05 bd a6 7f 1f bd 23 19 46 3d d1 50 02 bc
       -0.032507658 -0.038940094 0.048363816 -0.007953838
0003b0 d4 38 68 bd 24 61 13 3f ac 8c 67 3e c6 0b fc bc
       -0.05669482 0.575701 0.22612256 -0.030767333
0003c0 89 72 4a 3f c9 98 de 3e af bf 6b be ae 46 19 3e
       0.79081017 0.4347594 -0.2302234 0.14968368
0003d0 3b 15 6f be ae 4c 24 3c 07 a0 04 3e 44 b6 e3 3e
       -0.23347943 0.0100280475 0.1295167 0.44474995
0003e0 8e 8d c5 3d 34 15 1d 3f 96 7b 6d be 47 5f 78 be
       0.0964614 0.6136048 -0.23191676 -0.24255095
0003f0 51 55 55 3e ed 1a 2e be 14 94 09 3f 97 e5 da bd
       0.20833327 -0.17002459 0.53741574 -0.10688322

sequential/dense_3/MatMul f4 [4, 10]
000000 f1 56 1c 3e 6f 9d ba 3e 2a 56 18 3f e0 e7 00 bf
       0.1526754 0.36448237 0.59506476 -0.50353813
000010 99 e3 d6 bb 66 c2 31 be 38 3a f4 be 45 a7 2b bf
       -0.0065578935 -0.17359313 -0.47700667 -0.6705211
000020 87 53 9f 3e 42 dd 1e 3f de 95 74 bf 53 7c 15 3f
       0.31118414 0.6205636 -0.9554118 0.5839283
000030 6e 1f 29 3f ac 19 05 bf b4 8d 4f bf 46 7b f3 3e
       0.6606358 -0.519923 -0.81075597 0.47554988
000040 e1 b3 b2 3e f5 7c 37 be 13 d3 cf be 91 03 fc 3e
       0.34902862 -0.17918761 -0.40590724 0.4922147
000050 22 13 a3 3e 98 ea 3e bf 0c 9a 2b bf 35 5d 2e 3d
       0.31850535 -0.7457671 -0.6703193 0.042569358
000060 fd 8d 95 3e 39 51 47 bf 56 b4 59 be 86 b9 d5 3e
       0.2920989 -0.7785831 -0.21260199 0.41743106
000070 db 88 47 3e 7f 1b f7 3c ba 3a 29 bf cf 54 fb 3e
       0.194858 0.030164478 -0.66105235 0.4908814
000080 92 02 50 bf d7 73 53 3f ab 24 23 3d e8 ff 3c bf
       -0.8125392 0.8259863 0.03982989 -0.7382798
000090 54 6b 17 3f f6 5a b8 be 92 50 f4 be f5 a8 f8 be
       0.59148145 -0.36006898 -0.4771772 -0.48566404
